models/tflite_qaware_model.tflite (tflite, 82688 bytes, 2 tensors)

sequential/quant_dense/MatMul;sequential/quant_dense/LastValueQuant/FakeQuantWithMinMaxVars i1 [100, 784] scale=0.008467554 zero_point=0
0.016935108 0.04233777 0.016935108 0.016935108 -0.033870216 0.0 -0.059272878 0.07620799
-0.016935108 -0.016935108 0.06774043 0.059272878 0.06774043 0.025402661 -0.025402661 0.07620799
0.06774043 -0.033870216 -0.06774043 -0.06774043 -0.008467554 0.033870216 0.04233777 0.016935108
-0.06774043 0.06774043 -0.06774043 -0.050805323 -0.07620799 0.050805323 0.07620799 -0.059272878
-0.050805323 0.008467554 0.08467554 -0.050805323 -0.059272878 -0.016935108 -0.033870216 -0.025402661
-0.118545756 -0.12701331 -0.033870216 0.06774043 -0.25402662 -0.2201564 -0.16935109 -0.12701331
0.016935108 -0.04233777 0.08467554 0.07620799 0.050805323 -0.025402661 -0.059272878 -0.016935108
0.016935108 0.016935108 -0.06774043 -0.050805323 -0.1100782 -0.033870216 -0.16088353 -0.059272878
-0.17781864 -0.23709151 -0.30483195 -0.1862862 -0.16935109 0.0931431 -0.14394842 0.15241598
0.0931431 0.04233777 0.118545756 0.14394842 0.17781864 -0.07620799 -0.059272878 -0.059272878
-0.16935109 0.033870216 0.0 0.07620799 0.0 -0.050805323 -0.07620799 -0.025402661
-0.12701331 -0.025402661 -0.04233777 0.033870216 0.20322129 -0.016935108 0.0 -0.17781864
0.0931431 0.1100782 -0.050805323 0.16935109 -0.033870216 0.06774043 0.16935109 0.17781864
0.118545756 -0.04233777 -0.0931431 -0.0931431 -0.07620799 0.06774043 0.033870216 -0.06774043
-0.025402661 -0.016935108 0.16088353 0.14394842 0.04233777 -0.025402661 0.008467554 0.101610646
0.19475375 0.025402661 0.101610646 0.0 0.12701331 -0.033870216 0.016935108 0.08467554
0.0 0.04233777 0.04233777 -0.04233777 -0.033870216 -0.033870216 -0.13548087 0.016935108
0.04233777 0.17781864 0.14394842 -0.016935108 -0.033870216 0.025402661 0.04233777 0.16088353
-0.08467554 0.17781864 0.19475375 0.14394842 -0.04233777 0.033870216 -0.25402662 -0.14394842
0.050805323 0.04233777 0.033870216 0.033870216 0.025402661 -0.025402661 0.0 -0.025402661
0.07620799 -0.033870216 -0.016935108 -0.101610646 -0.059272878 0.07620799 0.033870216 -0.016935108
-0.033870216 0.0931431 0.008467554 0.08467554 0.13548087 0.06774043 0.0931431 -0.025402661
0.0 -0.0931431 -0.1100782 -0.050805323 -0.033870216 -0.04233777 -0.13548087 -0.016935108
0.0 0.059272878 -0.016935108 0.025402661 0.059272878 0.04233777 0.008467554 -0.016935108
0.16088353 0.118545756 0.07620799 0.1100782 -0.04233777 0.27096173 -0.025402661 0.118545756
0.059272878 -0.008467554 -0.008467554 0.025402661 0.008467554 0.06774043 0.07620799 -0.101610646
-0.101610646 -0.118545756 0.025402661 -0.059272878 0.050805323 0.04233777 0.07620799 0.118545756
0.008467554 0.008467554 0.04233777 0.101610646 -0.033870216 0.07620799 0.07620799 -0.050805323
0.07620799 0.08467554 -0.025402661 0.16088353 0.06774043 0.033870216 0.059272878 0.06774043
0.016935108 0.07620799 0.07620799 -0.101610646 -0.08467554 -0.050805323 -0.0931431 -0.050805323
-0.016935108 -0.016935108 0.07620799 0.1100782 0.0 0.050805323 0.033870216 0.14394842
0.0931431 0.118545756 0.24555907 0.118545756 0.008467554 0.101610646 -0.016935108 0.16935109
00000000: 0205 0202 fc00 f909 fefe 0807 0803 fd09
00000010: 08fc f8f8 ff04 0502 f808 f8fa f706 09f9
00000020: fa01 0afa f9fe fcfd f2f1 fc08 e2e6 ecf1
00000030: 02fb 0a09 06fd f9fe 0202 f8fa f3fc edf9
00000040: ebe4 dcea ec0b ef12 0b05 0e11 15f7 f9f9
00000050: ec04 0009 00fa f7fd f1fd fb04 18fe 00eb
00000060: 0b0d fa14 fc08 1415 0efb f5f5 f708 04f8
00000070: fdfe 1311 05fd 010c 1703 0c00 0ffc 020a
00000080: 0005 05fb fcfc f002 0515 11fe fc03 0513
00000090: f615 1711 fb04 e2ef 0605 0404 03fd 00fd
000000a0: 09fc fef4 f909 04fe fc0b 010a 1008 0bfd
000000b0: 00f5 f3fa fcfb f0fe 0007 fe03 0705 01fe
000000c0: 130e 090d fb20 fd0e 07ff ff03 0108 09f4
000000d0: f4f2 03f9 0605 090e 0101 050c fc09 09fa
000000e0: 090a fd13 0804 0708 0209 09f4 f6fa f5fa
000000f0: fefe 090d 0006 0411 0b0e 1d0e 010c fe14

sequential/quant_dense_1/MatMul;sequential/quant_dense_1/LastValueQuant/FakeQuantWithMinMaxVars i1 [10, 100] scale=0.008671844 zero_point=0
-0.3295301 -0.22546795 0.1560932 0.08671844 -0.16476505 -0.44226405 0.33820194 0.112733975
0.19945242 -0.08671844 -0.16476505 -0.57234174 0.04335922 0.3295301 0.10406213 0.24281165
-0.58968544 -0.44226405 -0.39890483 0.26882717 -0.21679612 -0.27749902 -0.20812427 -0.49429512
-0.21679612 0.069374755 -0.09539029 -0.390233 0.060702913 -0.5289825 -0.22546795 -0.017343689
0.2514835 -0.6243728 0.034687378 0.22546795 -0.56366986 -0.18210873 0.08671844 -0.6764039
-0.008671844 0.21679612 -0.08671844 -0.008671844 -0.55499804 -0.112733975 0.026015533 -0.33820194
0.29484272 -0.29484272 -0.3555456 0.034687378 0.14742136 -0.36421746 0.112733975 -0.10406213
0.04335922 -0.18210873 0.09539029 0.060702913 0.1560932 0.14742136 0.17343688 0.0
-0.026015533 0.026015533 -0.3121864 -0.017343689 0.29484272 -0.052031066 0.121405825 0.19078058
-0.19078058 0.40757668 0.13874951 0.0780466 -0.008671844 -0.6937475 0.17343688 -0.08671844
-0.20812427 0.36421746 -0.39890483 -0.060702913 0.14742136 0.112733975 0.09539029 -0.6070291
0.19945242 0.2341398 -0.09539029 0.19078058 -0.28617087 0.1560932 -0.27749902 -0.7631223
-0.80648154 0.13007766 -0.069374755 -0.27749902 0.13874951 -0.0780466 0.121405825 0.069374755
-0.32085824 0.29484272 0.017343689 -0.32085824 -0.17343688 -0.121405825 0.4682796 -0.45960775
-0.069374755 0.27749902 0.2341398 -0.19078058 0.060702913 0.59835726 0.29484272 0.017343689
0.19945242 -0.1560932 0.20812427 -0.20812427 0.0 -0.17343688 0.112733975 -0.20812427
-0.20812427 -0.2341398 0.36421746 0.26015532 -0.40757668 0.0780466 -0.26015532 -0.04335922
-0.44226405 -0.30351454 -0.55499804 -0.38156116 -0.7024194 -0.4682796 0.017343689 0.0780466
0.26015532 -0.026015533 0.18210873 -0.2341398 -0.09539029 -0.30351454 0.3555456 -0.7110912
-0.13874951 0.112733975 -0.3121864 -0.390233 0.3121864 0.43359223 -0.3295301 -0.26882717
-0.36421746 -0.18210873 -0.45960775 -0.53765434 0.39890483 0.42492038 0.6417165 -0.060702913
-0.20812427 0.069374755 -0.069374755 -0.29484272 0.112733975 0.40757668 0.18210873 -0.28617087
-0.21679612 0.2514835 -0.39890483 -0.060702913 0.28617087 0.26015532 -0.44226405 -0.1560932
-0.28617087 -0.47695145 -0.16476505 0.14742136 -0.27749902 -0.38156116 -0.2514835 0.13007766
0.08671844 0.04335922 0.017343689 0.18210873 0.47695145 -0.49429512 -0.24281165 0.2341398
-0.008671844 -0.20812427 0.36421746 -0.21679612 0.10406213 0.44226405 -0.4856233 -0.04335922
0.16476505 0.19078058 0.32085824 0.14742136 -0.18210873 0.17343688 0.026015533 -0.3295301
-0.667732 0.10406213 -0.7197631 0.2341398 0.30351454 -0.026015533 -0.052031066 -0.112733975
-0.09539029 0.008671844 0.14742136 0.33820194 0.3121864 0.13007766 0.052031066 0.17343688
-0.121405825 -0.33820194 0.30351454 0.04335922 -0.026015533 0.10406213 -0.8845281 -0.5463262
0.26882717 -0.112733975 -0.45960775 -0.58101356 0.4509359 -0.26882717 0.26882717 0.1560932
-0.008671844 -0.30351454 -0.6764039 -0.2341398 0.069374755 0.08671844 0.19078058 0.17343688
00000000: dae6 120a edcd 270d 17f6 edbe 0526 0c1c
00000010: bccd d21f e7e0 e8c7 e708 f5d3 07c3 e6fe
00000020: 1db8 041a bfeb 0ab2 ff19 f6ff c0f3 03d9
00000030: 22de d704 11d6 0df4 05eb 0b07 1211 1400
00000040: fd03 dcfe 22fa 0e16 ea2f 1009 ffb0 14f6
00000050: e82a d2f9 110d 0bba 171b f516 df12 e0a8
00000060: a30f f8e0 10f7 0e08 db22 02db ecf2 36cb
00000070: f820 1bea 0745 2202 17ee 18e8 00ec 0de8
00000080: e8e5 2a1e d109 e2fb cddd c0d4 afca 0209
00000090: 1efd 15e5 f5dd 29ae f00d dcd3 2432 dae1
000000a0: d6eb cbc2 2e31 4af9 e808 f8de 0d2f 15df
000000b0: e71d d2f9 211e cdee dfc9 ed11 e0d4 e30f
000000c0: 0a05 0215 37c7 e41b ffe8 2ae7 0c33 c8fb
000000d0: 1316 2511 eb14 03da b30c ad1b 23fd faf3
000000e0: f501 1127 240f 0614 f2d9 2305 fd0c 9ac1
000000f0: 1ff3 cbbd 34e1 1f12 ffdd b2e5 080a 1614
