models/tflite_model.tflite (tflite, 320676 bytes, 4 tensors)

arith.constant f4 [100]
0	0x3cc11497	0.023569388
1	0x3e2ef4d2	0.17085579
2	0xbde5b600	-0.11216354
3	0xbdcde507	-0.10053449
4	0x3dc76838	0.09736675
5	0xbdcbf104	-0.099580795
6	0xbc8343b2	-0.01602349
7	0xbc8d558a	-0.017252702
8	0x3c723770	0.014783725
9	0x3c6fef1f	0.014644413
10	0x3d9eee3d	0.07760284
11	0x3b8b2e83	0.004247488
12	0x3aa527b8	0.0012600338
13	0xbd26e183	-0.04074241
14	0xbd996667	-0.07490235
15	0x3dc7873e	0.09742592
16	0xbe145327	-0.14484845
17	0xbcd562b6	-0.026048046
18	0xbdd96ed7	-0.10616844
19	0x3d9f4600	0.07777023
20	0x3e606cd5	0.21916516
21	0x3cf033a8	0.029321507
22	0x3d884534	0.066538244
23	0xbc8a41c9	-0.016877072
24	0x3d1e84b3	0.03870077
25	0xbdc031dc	-0.0938451
26	0x3db03dc8	0.08605534
27	0x3d4c3f38	0.049864978
28	0x3d34573c	0.044028506
29	0x3e2d0fb1	0.16900517
30	0x3d4deb1d	0.05027305
31	0xbc099330	-0.008396909
32	0xbd8cb645	-0.06870703
33	0xba90e6a5	-0.0011055066
34	0xbd7e1adf	-0.062037345
35	0xbd73b0eb	-0.059494894
36	0xbdbfafbd	-0.09359691
37	0x3e31f4f2	0.17378595
38	0xbdcb5c92	-0.09929766
39	0x3e2e7748	0.1703769
40	0x3c883c49	0.016630309
41	0x3c907be0	0.017637193
42	0x3d5c606a	0.053802885
43	0xbda1ac57	-0.07894199
44	0x3e31ede7	0.17375909
45	0x3d7b4d51	0.06135303
46	0x3d1620d5	0.036652405
47	0x3e0db37f	0.13838004
48	0x3dbbdde2	0.0917318
49	0x3cb3b70c	0.02193787
50	0x3e1da3a7	0.1539446
51	0x3dd061c8	0.101749
52	0x3d2561ce	0.040376477
53	0x3d963ff2	0.07336415
54	0xbd879f20	-0.066221476
55	0x3dd2bd90	0.102900624
56	0x3c40fe9e	0.0117794555
57	0xbc9c5c73	-0.019087052
58	0x3dfb7235	0.12277643
59	0x3e0b5fba	0.13610736
60	0x3d64cdd5	0.05586036
61	0xbd049f65	-0.032378573
62	0x3c59d3c2	0.013295116
63	0xba0dc878	-0.00054085953
64	0x3e06c9cf	0.13162921
65	0x3daef0e3	0.08542039
66	0x3d7ed5f4	0.06221576
67	0x3d8c3d52	0.068476334
68	0xbe34ead6	-0.17667708
69	0x3e0e8b85	0.1392041
70	0xbd093e31	-0.033506576
71	0xbcc0a51d	-0.023516232
72	0x3e1aab84	0.1510449
73	0x3d13b086	0.036057018
74	0x3e04b00e	0.12957785
75	0xbdde040a	-0.10840614
76	0xbaa38317	-0.0012474981
77	0x3c7c1dbb	0.015387948
78	0x3db77422	0.089576975
79	0xbdd196be	-0.1023383
80	0x3e263f68	0.16235125
81	0x3b575b24	0.003286072
82	0x3d939948	0.072069705
83	0x3e149f4d	0.14513893
84	0x3dc0e75a	0.09419127
85	0x3d65f0ab	0.056137722
86	0xbc82e50f	-0.015978364
87	0x3d775085	0.060379524
88	0x3d336f3a	0.043807246
89	0x3e1643a6	0.14674243
90	0x3dee9df4	0.11651221
91	0x3d8fe3c3	0.07025864
92	0x3db165f5	0.08662025
93	0xbdaace83	-0.0834017
94	0xbe17b8dd	-0.14816613
95	0xbc27147c	-0.010197755
96	0x3e1bdf8a	0.15221992
97	0xbdc5eb22	-0.09663989
98	0xbbb36933	-0.005475187
99	0x3d3f8ae0	0.0467633

arith.constant1 f4 [10]
0	0xbe0fa249	-0.1402675
1	0xbbe7cab1	-0.0070737232
2	0xbcf0de8e	-0.029402997
3	0xbe16c90b	-0.1472513
4	0x3d92baea	0.07164557
5	0x3dcf5101	0.10122872
6	0xbd22f17d	-0.039781082
7	0xbd2f84ae	-0.042851143
8	0x3e1d2d3d	0.15349288
9	0xb90140f0	-0.0001232659

arith.constant2 f4 [10, 100]
0	0xbdb543f7	-0.08850854
1	0xbefc8ffd	-0.49328604
2	0xbea67d7d	-0.32517615
3	0xbd99d030	-0.07510412
4	0xbdd8bd8b	-0.105830275
5	0x3ec63a97	0.38716576
6	0x3e2f7936	0.17136082
7	0x3d4c3c6f	0.04986232
8	0xbe24fd0e	-0.16112158
9	0x3e89d197	0.26917717
10	0x3e84cf1d	0.25939265
11	0xbe367e46	-0.17821607
12	0x3ba49170	0.0050222203
13	0x3e7f9a83	0.24961285
14	0x3e5de112	0.21667889
15	0x3e81a9b1	0.25324777
16	0x3e92f0bd	0.28699294
17	0x3d2be116	0.041962706
18	0x3d92af0a	0.07162292
19	0xbe327666	-0.17427978
20	0x3c61b511	0.01377608
21	0xbe8453eb	-0.25845274
22	0xbec02a3f	-0.3753223
23	0xbe71f23a	-0.23627558
24	0x3e6558cf	0.22397159
25	0x3e8ede86	0.27904147
26	0xbef6227f	-0.48073193
27	0x3e1c15a5	0.15242632
28	0x3dba9a26	0.09111433
29	0xbda10cad	-0.07863746
30	0xbe46e408	-0.19422925
31	0x3d0296ae	0.03188198
32	0xbd3145c9	-0.043279443
33	0xbeab55a8	-0.33463788
34	0x3e65c451	0.2243817
35	0x3e285b85	0.16441162
36	0x3da6b87a	0.08140655
37	0xbe1b2212	-0.15149716
38	0x3eb51683	0.35368738
39	0xbf1d214c	-0.6137893
40	0x3e3b9a53	0.18320589
41	0xbedffad1	-0.43746045
42	0x3e2da113	0.16955976
43	0x3e8f5f55	0.2800242
44	0xbe5e5b04	-0.21714407
45	0x3e24acb5	0.16081508
46	0x3e85ec95	0.2615706
47	0x3cfe4a39	0.031041251
48	0x3d18372b	0.037161987
49	0xbe6a2ddd	-0.22869058
50	0x3ce931b4	0.028466083
51	0xbf1998d2	-0.5999881
52	0xbf519e69	-0.8188234
53	0xbd619542	-0.055073984
54	0xbe80755e	-0.25089544
55	0x3e93f08a	0.28894454
56	0x3d130c48	0.035900384
57	0x3e33e40b	0.1756746
58	0xbf09ad1d	-0.53779775
59	0xbe8c27cc	-0.27374113
60	0xbec41891	-0.38299993
61	0x3e1ea33a	0.15491953
62	0xbf31e1cb	-0.6948516
63	0x3e3a6d23	0.18205695
64	0xbe0c7e74	-0.13720113
65	0xbebe2610	-0.37138414
66	0x3d06417f	0.032777306
67	0x3e83c22c	0.2573408
68	0x3e14b060	0.14520407
69	0xbe8d8d9b	-0.276471
70	0xbeaf686c	-0.34259355
71	0xbe162b74	-0.14665014
72	0xbf34901a	-0.7053238
73	0xbc73c19c	-0.014877703
74	0x3d8fdbd7	0.07024353
75	0xbf2e31cc	-0.68044734
76	0xbf233b89	-0.6376272
77	0xbe8bffa3	-0.27343473
78	0x3defc937	0.117083006
79	0x3e35063d	0.17678161
80	0x3e847e4d	0.2587761
81	0xbef4a717	-0.4778373
82	0x3ebfa070	0.37427092
83	0xbdcc5f43	-0.09979107
84	0x3e58d8ef	0.21176504
85	0xbe9ec865	-0.31012264
86	0xbead4062	-0.33838183
87	0x3d8b2bd2	0.067954674
88	0xbeacc54a	-0.3374427
89	0x3dcbc556	0.09949748
90	0xbcd36b3a	-0.025807966
91	0xbef82d1f	-0.48471925
92	0x3e35d38f	0.17756484
93	0x3e3b808f	0.1831076
94	0xbd43bf0d	-0.047789622
95	0xbc3c7b1b	-0.01150396
96	0x3e7c8d33	0.24663238
97	0x3e7b288e	0.24527189
98	0x3dfc1d9f	0.12310337
99	0x3e1f16bf	0.1553602
100	0x3e7f7280	0.24946022
101	0xbd8c2b32	-0.06844176
102	0x3e117259	0.14203776
103	0xbed725eb	-0.42021117
104	0x3e808632	0.25102383
105	0xbe2ea376	-0.17054543
106	0xbeb44087	-0.3520548
107	0xbeaffb46	-0.34371394
108	0x3ec3e6ff	0.38262174
109	0xbefb463e	-0.49077028
110	0x3ec679e9	0.38764885
111	0x3e9f5bc0	0.31124687
112	0x3d5b5e6f	0.053556856
113	0xbea6a421	-0.32547095
114	0x3e5631be	0.20917413
115	0xbf4de69b	-0.8043
116	0xbed2bcfa	-0.41159803
117	0xbea42b37	-0.3206422
118	0xbdb89616	-0.090130016
119	0xbed38004	-0.41308606
120	0xbdf12739	-0.11775059
121	0x3e9b2bf7	0.3030698
122	0x3d173651	0.036917035
123	0x3e9f8c88	0.31161904
124	0xbdb90c18	-0.0903551
125	0x3dfe1d0a	0.124078825
126	0x3e393e82	0.18090251
127	0x3eb49ea3	0.3527728
128	0x3de3fcda	0.11132212
129	0xbda72e0c	-0.081630796
130	0x3efcaf4f	0.493525
131	0xbd9ec573	-0.07752504
132	0x3d3550a6	0.044266365
133	0xbec47861	-0.38373092
134	0xbee52157	-0.44752
135	0xbe8839f9	-0.2660673
136	0xbf033e3b	-0.5126683
137	0x3ac3d38e	0.0014940368
138	0xbe12334b	-0.14277379
139	0x3e56e02a	0.2098395
140	0xbea6d70c	-0.32585943
141	0x3e8e7034	0.2781998
142	0x3e012a3d	0.12613769
143	0x3f1bc9b5	0.60854656
144	0xbf161134	-0.5862
145	0xbe99814c	-0.29981458
146	0x3f1b9d14	0.6078656
147	0x3edad674	0.4274174
148	0x3e2f2ee9	0.17107739
149	0xbefb9dd5	-0.49143854
150	0xbeeb3c3a	-0.45944387
151	0xbe8ebb57	-0.27877304
152	0x3e2b927f	0.16755103
153	0xbe96297f	-0.29328534
154	0x3d06c48e	0.032902293
155	0xbe8723f2	-0.26394612
156	0x3e87fa6b	0.2655824
157	0xbdfbe2ad	-0.12299094
158	0xbdfb82c7	-0.12280803
159	0xbda20150	-0.079104066
160	0xbebef263	-0.372943
161	0xbe3e4e11	-0.18584467
162	0xbf01d07b	-0.5070874
163	0x3b256321	0.0025236087
164	0x3f2f3923	0.6844656
165	0x3eaf2ebf	0.34215352
166	0xbea9f01c	-0.33191
167	0xbeabcc87	-0.3355448
168	0x3dbc51c2	0.091952816
169	0x3e8a9704	0.2706834
170	0x3e4ec1fd	0.20191188
171	0xbde62a80	-0.11238575
172	0xbf3ed5cf	-0.74544996
173	0x3e394fdc	0.1809687
174	0x3f08740f	0.5330209
175	0xbe80c829	-0.2515271
176	0x3d876929	0.066118546
177	0x3e91e593	0.28495464
178	0xbdc236ca	-0.094831064
179	0x3dc656a9	0.09684498
180	0x3f332a78	0.6998668
181	0x3daeebdd	0.08541081
182	0xbefabbe6	-0.4897148
183	0xbe181e35	-0.14855273
184	0xbe53b87e	-0.20675847
185	0xbd55c726	-0.052191876
186	0xbb167c51	-0.0022962282
187	0x3d15a04b	0.03652982
188	0xbed15fe4	-0.4089347
189	0xbe6eda7b	-0.23325531
190	0xbd2947d6	-0.041328274
191	0x3ea42da1	0.32066062
192	0x3d804ee2	0.06265046
193	0x3e837fca	0.25683433
194	0xbe31ebef	-0.17375158
195	0xbd0d215d	-0.034455646
196	0xbf02349f	-0.50861543
197	0xbe87d2d8	-0.2652805
198	0xbc85f09e	-0.016350087
199	0x3e46ab83	0.19401364
200	0xbe0e7429	-0.13911499
201	0xbcf5f70c	-0.030025028
202	0x3e92b53a	0.2865389
203	0x3e3367fd	0.17520137
204	0xbf37b228	-0.7175622
205	0xbeef5d2d	-0.46750775
206	0x3e119268	0.14216006
207	0xbeb9dd57	-0.3630168
208	0xbf17b3d0	-0.5925875
209	0xbc575226	-0.013142144
210	0xbcdf5efd	-0.027266974
211	0x3ea9d329	0.33168915
212	0x3e872191	0.26392797
213	0x3ad7d182	0.0016465636
214	0xbdd89289	-0.10574824
215	0xbdeb116e	-0.11477934
216	0x3e6d4bf1	0.231735
217	0xbd2cd857	-0.042198505
218	0x3d261525	0.04054751
219	0xbef41174	-0.47669566
220	0xbf522f8e	-0.8210381
221	0x3daccfe8	0.084380925
222	0x3d81edb3	0.06344166
223	0x3e99a7f2	0.30010945
224	0x3e8e5d35	0.27805486
225	0x3e891570	0.26774168
226	0xbe97fa2c	-0.29683053
227	0x3e6a6cda	0.22893086
228	0xbee29aa6	-0.44258612
229	0x3e5f5619	0.21810187
230	0x3e505143	0.20343499
231	0x3dcc3f5b	0.099730216
232	0x3e64021a	0.22266427
233	0x3e7ca456	0.24672064
234	0xbdc11081	-0.09426976
235	0x3e3b4b29	0.1829039
236	0xbe937d1a	-0.28806382
237	0x3e374396	0.17896876
238	0x3e2529f0	0.16129279
239	0xbec3c8dc	-0.3823918
240	0xbe82f3e4	-0.255767
241	0xbe1e1d2a	-0.15440813
242	0x3dab2771	0.08357132
243	0xbe80e3d8	-0.2517383
244	0x3e06d06f	0.13165449
245	0x3e0e33fc	0.13887018
246	0xbea39220	-0.31947422
247	0x3eb2b0d6	0.3490054
248	0x3e3d50e2	0.18487886
249	0x3d907e1b	0.07055303
250	0x3d2d8bf7	0.04236981
251	0xbe980d49	-0.29697636
252	0x3ef248bf	0.47321126
253	0xbe884bbc	-0.2662028
254	0x3e22edbd	0.15911002
255	0x3e3b6d70	0.18303466

arith.constant3 f4 [100, 784]
0	0x3d855bec	0.06511673
1	0x3d7e4fc8	0.062087804
2	0xbd9b2249	-0.07574899
3	0x3d486f04	0.048933998
4	0xbccf5416	-0.02530865
5	0xbda4a043	-0.0803838
6	0x3c95f448	0.018304959
7	0xbd20fc42	-0.03930307
8	0xbd416b8a	-0.047221698
9	0xbd848fe3	-0.06472757
10	0x3d4b9724	0.049704686
11	0xb89c2800	-7.44611e-05
12	0xbc8b7c51	-0.017027052
13	0xbce2bc1b	-0.027677586
14	0x3d3cff4a	0.0461419
15	0xba0dc165	-0.0005407541
16	0xbd964c9d	-0.073388316
17	0x3d99846c	0.074959606
18	0xbd16ed2f	-0.03684729
19	0x3d23be22	0.039976247
20	0xbb87e970	-0.004147701
21	0x3be038f0	0.006842725
22	0xbce17cac	-0.027525268
23	0x3d15a77e	0.036536686
24	0x3d41dea0	0.047331452
25	0x3c769930	0.015051171
26	0xbd3f5004	-0.04670717
27	0xbda72264	-0.08160856
28	0xbb94ddc0	-0.004543036
29	0x3d87c4e6	0.06629352
30	0x3cf66b94	0.030080594
31	0x3d9c969e	0.076459154
32	0x3c82eb5f	0.015981374
33	0x3df93630	0.121685386
34	0x3de410c3	0.111360095
35	0x3d8b72e8	0.06809026
36	0x3e0934bd	0.13399024
37	0x3e0a689e	0.13516471
38	0x3e118517	0.14210926
39	0x3d56a868	0.0524067
40	0x3d561af2	0.05227179
41	0x3e83d762	0.25750262
42	0x3e16d1d6	0.14728484
43	0x3e8f6eb6	0.28014153
44	0x3e95f076	0.2928502
45	0x3e402df7	0.18767534
46	0x3d1df77f	0.03856611
47	0x3dfa3267	0.12216645
48	0x3d521a84	0.05129482
49	0x3cee8787	0.029117359
50	0x3dffc224	0.12488201
51	0x3e18a048	0.14904892
52	0x3d031b28	0.03200832
53	0x3d470688	0.048590213
54	0x3d82d6a4	0.06388596
55	0xbbec2430	-0.0072064623
56	0xbc91568c	-0.017741464
57	0x3cf09894	0.02936963
58	0x3dbce21e	0.09222816
59	0x3e0e24fc	0.13881296
60	0x3e02b71b	0.12765162
61	0x3ce87ec0	0.028380752
62	0x3d31a8b2	0.04337377
63	0x3d1789e9	0.036996756
64	0x3d904666	0.070446774
65	0xbc0e1c18	-0.00867369
66	0xbd5bc202	-0.053651817
67	0x3e53f53f	0.20699023
68	0x3a47d8fb	0.000762358
69	0x3ddc9e1c	0.107723445
70	0x3e02de6d	0.12780161
71	0x3eb479db	0.35249218
72	0x3eb7708a	0.35828048
73	0x3e918d2d	0.2842802
74	0x3e953c4a	0.2914756
75	0x3e5cdb77	0.21568094
76	0x3e130e1a	0.14360848
77	0x3e286239	0.16443719
78	0x3dcd6580	0.10029125
79	0x3e1c1c43	0.15245156
80	0x3df3ad47	0.118982844
81	0xbd670647	-0.05640247
82	0x3d186336	0.03720399
83	0xbd6afa17	-0.05736741
84	0xbd623a72	-0.05523152
85	0x3c02ef18	0.007991575
86	0x3db8c1fb	0.09021374
87	0x3e2705b0	0.16310763
88	0x3c88b642	0.01668847
89	0xbda2bfc6	-0.07946734
90	0x3ce336db	0.027736118
91	0x3e487b27	0.19578229
92	0xbc8c9d79	-0.017164933
93	0xbe4a8dbf	-0.19780634
94	0xbdf08c8a	-0.11745556
95	0xbd81d5e5	-0.06339625
96	0xbc7ae976	-0.0153144505
97	0x3b89cec8	0.0042055584
98	0x3c7d70cf	0.01546879
99	0x3dac878d	0.08424292
100	0x3cff38bd	0.031154985
101	0x3d30a25c	0.043123588
102	0x3e3074f3	0.17232113
103	0x3e3e99f3	0.18613414
104	0x3e1fd41d	0.15608259
105	0x3e2e0f0a	0.16997924
106	0x3c9d10e5	0.019173095
107	0xbd0817d9	-0.033225868
108	0x3b0856ec	0.0020803763
109	0x3e2b95bf	0.16756342
110	0x3e190f7b	0.14947312
111	0xbc3cabc0	-0.011515558
112	0xbd6642e6	-0.056216143
113	0x3d258cb4	0.040417388
114	0x3e12dd02	0.1434212
115	0x3e895bd5	0.26827875
116	0x3da0efe3	0.07858255
117	0x3d5f55dc	0.05452524
118	0xbdbb9b81	-0.091605194
119	0xbdda014c	-0.106447786
120	0xbd08a312	-0.03335864
121	0xbdb573ae	-0.08859955
122	0x3c55924f	0.013035371
123	0x3c752a8d	0.014963758
124	0xbe51626e	-0.20447704
125	0xbe0e5613	-0.13900022
126	0xbc1649cf	-0.009172871
127	0x3defe403	0.11713412
128	0xbd9c5700	-0.076337814
129	0xbddefc60	-0.108879805
130	0xbce2f945	-0.027706752
131	0x3afe4ff4	0.001940249
132	0xbdcbc563	-0.09949758
133	0x3db01464	0.08597639
134	0x3ce0018f	0.027344493
135	0x3d310aa5	0.043223042
136	0x3cdbe023	0.026840275
137	0x3e1fb74d	0.15597267
138	0x3e21acc5	0.15788563
139	0x3c18b7f0	0.009321198
140	0x3d862b08	0.06551176
141	0xbc8ef294	-0.017449655
142	0x3e5ef5e0	0.21773481
143	0xbda6f40f	-0.08152019
144	0xbd8ba132	-0.06817855
145	0x3e4af22f	0.19818948
146	0x3da0112d	0.07815776
147	0x3d8d49ff	0.06898879
148	0x3d203317	0.039111223
149	0xbc4998e4	-0.012304518
150	0xbdc5e800	-0.09663391
151	0xbdfbab8d	-0.1228858
152	0xbe80c50b	-0.25150332
153	0xbe06322f	-0.13105081
154	0x3bb23922	0.0054389397
155	0x3bc9f5c1	0.0061633294
156	0xbd02c710	-0.031928122
157	0x3c41b9d2	0.011824088
158	0x3d8005a1	0.06251074
159	0xbb041731	-0.0020155425
160	0xbd080447	-0.033207204
161	0xbd3ca664	-0.04605712
162	0x3de62d89	0.11239154
163	0x3dd05d96	0.101741
164	0xbbf3264a	-0.007420336
165	0x3e7381e8	0.23780024
166	0x3e04f15a	0.12982693
167	0x3d56b82e	0.05242174
168	0x3ca9db78	0.020734534
169	0x3ca1c427	0.019746853
170	0x3e2a6b71	0.16642548
171	0xbb8dd15b	-0.0043279356
172	0x3d241c2f	0.04006594
173	0x3e149636	0.14510426
174	0x3e45c07d	0.1931171
175	0x3e14b022	0.14520314
176	0x3dc9dce2	0.09856583
177	0x3c27c2f1	0.010239349
178	0x3d8b1040	0.06790209
179	0xbbe55f52	-0.0069998885
180	0xbaaf77e5	-0.0013387172
181	0x3b6f30ef	0.0036497673
182	0xbcfac160	-0.030609787
183	0xbbb70772	-0.0055856043
184	0x3d61ca6d	0.05512469
185	0xbccaf894	-0.024776734
186	0x3df74194	0.12073055
187	0x3c85bb32	0.016324613
188	0x3db9aaf9	0.090658136
189	0x3dc70c6b	0.097191654
190	0xbc7a2613	-0.015267867
191	0xbd7bc283	-0.061464798
192	0x3e52bac1	0.20579053
193	0x3ef1a1ab	0.47193655
194	0x3e32c9ff	0.17459868
195	0x3e0901b1	0.13379551
196	0x3cbdae95	0.023154536
197	0x3e3303c5	0.17481907
198	0x3ca95395	0.020669738
199	0x3c0e60d3	0.008690077
200	0xbd4f64e4	-0.050633326
201	0xbc8d8c5d	-0.017278844
202	0xbca04479	-0.0195639
203	0x3e15ab55	0.14616139
204	0x3d9e7c91	0.07738603
205	0x3db611a9	0.08890087
206	0x3de79020	0.113067865
207	0x3e00e8ba	0.12588778
208	0x3e31126f	0.17292188
209	0x3ca333e6	0.019922208
210	0x3e37d9ae	0.17954132
211	0x3e4f7635	0.20259936
212	0x3e645445	0.22297771
213	0x3de4a825	0.111648835
214	0x3e3c4616	0.1838611
215	0x3e283b68	0.16428912
216	0x3e66b1f3	0.2252882
217	0x3db66b76	0.08907215
218	0x3ce84f78	0.028358206
219	0x3e24aad7	0.16080795
220	0x3db1f2de	0.08688901
221	0x3e8a8ab6	0.27058953
222	0x3e88cdea	0.267196
223	0x3dac0074	0.08398524
224	0xbb673981	-0.0035282078
225	0x3df1a065	0.11798171
226	0x3db7a30c	0.089666456
227	0x3d65e9a3	0.056131016
228	0xbd30828a	-0.04309324
229	0xbd196062	-0.037445433
230	0x3d1e342a	0.038623966
231	0x3ca71dab	0.020399889
232	0x3d4fb4d6	0.050709568
233	0x3e313aea	0.1730763
234	0x3e4c4cce	0.19951174
235	0x3e1adaec	0.15122575
236	0x3e55994a	0.20859256
237	0x3e4d3097	0.20038067
238	0x3e4c93c2	0.1997824
239	0x3e451cfb	0.19249336
240	0x3e6dfff3	0.23242168
241	0x3e2b949d	0.1675591
242	0x3de546f9	0.111951776
243	0x3e33ede1	0.17571212
244	0x3e6dd83c	0.23227018
245	0xbcda18ce	-0.026623156
246	0x3e160b2a	0.14652696
247	0x3e307baf	0.17234682
248	0x3df7cf26	0.12100057
249	0xbd8c0a6a	-0.06837924
250	0x3d8798dd	0.06620953
251	0x3cb248dd	0.02176326
252	0xbd6ec390	-0.05829197
253	0x3e278fc9	0.16363443
254	0x3e142d62	0.14470437
255	0x3d9ef3ed	0.07761369
