models/tflite_quant_model.tflite (tflite, 86744 bytes, 4 tensors)

arith.constant3 f4 [100]
0.023569388 0.17085579 -0.11216354 -0.10053449 0.09736675 -0.099580795 -0.01602349 -0.017252702
0.014783725 0.014644413 0.07760284 0.004247488 0.0012600338 -0.04074241 -0.07490235 0.09742592
-0.14484845 -0.026048046 -0.10616844 0.07777023 0.21916516 0.029321507 0.066538244 -0.016877072
0.03870077 -0.0938451 0.08605534 0.049864978 0.044028506 0.16900517 0.05027305 -0.008396909
-0.06870703 -0.0011055066 -0.062037345 -0.059494894 -0.09359691 0.17378595 -0.09929766 0.1703769
0.016630309 0.017637193 0.053802885 -0.07894199 0.17375909 0.06135303 0.036652405 0.13838004
0.0917318 0.02193787 0.1539446 0.101749 0.040376477 0.07336415 -0.066221476 0.102900624
0.0117794555 -0.019087052 0.12277643 0.13610736 0.05586036 -0.032378573 0.013295116 -0.00054085953
0.13162921 0.08542039 0.06221576 0.068476334 -0.17667708 0.1392041 -0.033506576 -0.023516232
0.1510449 0.036057018 0.12957785 -0.10840614 -0.0012474981 0.015387948 0.089576975 -0.1023383
0.16235125 0.003286072 0.072069705 0.14513893 0.09419127 0.056137722 -0.015978364 0.060379524
0.043807246 0.14674243 0.11651221 0.07025864 0.08662025 -0.0834017 -0.14816613 -0.010197755
0.15221992 -0.09663989 -0.005475187 0.0467633
00000000: 9714 c13c d2f4 2e3e 00b6 e5bd 07e5 cdbd
00000010: 3868 c73d 04f1 cbbd b243 83bc 8a55 8dbc
00000020: 7037 723c 1fef 6f3c 3dee 9e3d 832e 8b3b
00000030: b827 a53a 83e1 26bd 6766 99bd 3e87 c73d
00000040: 2753 14be b662 d5bc d76e d9bd 0046 9f3d
00000050: d56c 603e a833 f03c 3445 883d c941 8abc
00000060: b384 1e3d dc31 c0bd c83d b03d 383f 4c3d
00000070: 3c57 343d b10f 2d3e 1deb 4d3d 3093 09bc
00000080: 45b6 8cbd a5e6 90ba df1a 7ebd ebb0 73bd
00000090: bdaf bfbd f2f4 313e 925c cbbd 4877 2e3e
000000a0: 493c 883c e07b 903c 6a60 5c3d 57ac a1bd
000000b0: e7ed 313e 514d 7b3d d520 163d 7fb3 0d3e
000000c0: e2dd bb3d 0cb7 b33c a7a3 1d3e c861 d03d
000000d0: ce61 253d f23f 963d 209f 87bd 90bd d23d
000000e0: 9efe 403c 735c 9cbc 3572 fb3d ba5f 0b3e
000000f0: d5cd 643d 659f 04bd c2d3 593c 78c8 0dba
00000100: cfc9 063e e3f0 ae3d f4d5 7e3d 523d 8c3d
00000110: d6ea 34be 858b 0e3e 313e 09bd 1da5 c0bc
00000120: 84ab 1a3e 86b0 133d 0eb0 043e 0a04 debd
00000130: 1783 a3ba bb1d 7c3c 2274 b73d be96 d1bd
00000140: 683f 263e 245b 573b 4899 933d 4d9f 143e
00000150: 5ae7 c03d abf0 653d 0fe5 82bc 8550 773d
00000160: 3a6f 333d a643 163e f49d ee3d c3e3 8f3d
00000170: f565 b13d 83ce aabd ddb8 17be 7c14 27bc
00000180: 8adf 1b3e 22eb c5bd 3369 b3bb e08a 3f3d

arith.constant4 f4 [10]
-0.1402675 -0.0070737232 -0.029402997 -0.1472513 0.07164557 0.10122872 -0.039781082 -0.042851143
0.15349288 -0.0001232659
00000000: 49a2 0fbe b1ca e7bb 8ede f0bc 0bc9 16be
00000010: eaba 923d 0151 cf3d 7df1 22bd ae84 2fbd
00000020: 3d2d 1d3e f040 01b9

arith.constant5 f4 [10, 100]
-0.08850854 -0.49328604 -0.32517615 -0.07510412 -0.105830275 0.38716576 0.17136082 0.04986232
-0.16112158 0.26917717 0.25939265 -0.17821607 0.0050222203 0.24961285 0.21667889 0.25324777
0.28699294 0.041962706 0.07162292 -0.17427978 0.01377608 -0.25845274 -0.3753223 -0.23627558
0.22397159 0.27904147 -0.48073193 0.15242632 0.09111433 -0.07863746 -0.19422925 0.03188198
-0.043279443 -0.33463788 0.2243817 0.16441162 0.08140655 -0.15149716 0.35368738 -0.6137893
0.18320589 -0.43746045 0.16955976 0.2800242 -0.21714407 0.16081508 0.2615706 0.031041251
0.037161987 -0.22869058 0.028466083 -0.5999881 -0.8188234 -0.055073984 -0.25089544 0.28894454
0.035900384 0.1756746 -0.53779775 -0.27374113 -0.38299993 0.15491953 -0.6948516 0.18205695
-0.13720113 -0.37138414 0.032777306 0.2573408 0.14520407 -0.276471 -0.34259355 -0.14665014
-0.7053238 -0.014877703 0.07024353 -0.68044734 -0.6376272 -0.27343473 0.117083006 0.17678161
0.2587761 -0.4778373 0.37427092 -0.09979107 0.21176504 -0.31012264 -0.33838183 0.067954674
-0.3374427 0.09949748 -0.025807966 -0.48471925 0.17756484 0.1831076 -0.047789622 -0.01150396
0.24663238 0.24527189 0.12310337 0.1553602 0.24946022 -0.06844176 0.14203776 -0.42021117
0.25102383 -0.17054543 -0.3520548 -0.34371394 0.38262174 -0.49077028 0.38764885 0.31124687
0.053556856 -0.32547095 0.20917413 -0.8043 -0.41159803 -0.3206422 -0.090130016 -0.41308606
-0.11775059 0.3030698 0.036917035 0.31161904 -0.0903551 0.124078825 0.18090251 0.3527728
0.11132212 -0.081630796 0.493525 -0.07752504 0.044266365 -0.38373092 -0.44752 -0.2660673
-0.5126683 0.0014940368 -0.14277379 0.2098395 -0.32585943 0.2781998 0.12613769 0.60854656
-0.5862 -0.29981458 0.6078656 0.4274174 0.17107739 -0.49143854 -0.45944387 -0.27877304
0.16755103 -0.29328534 0.032902293 -0.26394612 0.2655824 -0.12299094 -0.12280803 -0.079104066
-0.372943 -0.18584467 -0.5070874 0.0025236087 0.6844656 0.34215352 -0.33191 -0.3355448
0.091952816 0.2706834 0.20191188 -0.11238575 -0.74544996 0.1809687 0.5330209 -0.2515271
0.066118546 0.28495464 -0.094831064 0.09684498 0.6998668 0.08541081 -0.4897148 -0.14855273
-0.20675847 -0.052191876 -0.0022962282 0.03652982 -0.4089347 -0.23325531 -0.041328274 0.32066062
0.06265046 0.25683433 -0.17375158 -0.034455646 -0.50861543 -0.2652805 -0.016350087 0.19401364
-0.13911499 -0.030025028 0.2865389 0.17520137 -0.7175622 -0.46750775 0.14216006 -0.3630168
-0.5925875 -0.013142144 -0.027266974 0.33168915 0.26392797 0.0016465636 -0.10574824 -0.11477934
0.231735 -0.042198505 0.04054751 -0.47669566 -0.8210381 0.084380925 0.06344166 0.30010945
0.27805486 0.26774168 -0.29683053 0.22893086 -0.44258612 0.21810187 0.20343499 0.099730216
0.22266427 0.24672064 -0.09426976 0.1829039 -0.28806382 0.17896876 0.16129279 -0.3823918
-0.255767 -0.15440813 0.08357132 -0.2517383 0.13165449 0.13887018 -0.31947422 0.3490054
0.18487886 0.07055303 0.04236981 -0.29697636 0.47321126 -0.2662028 0.15911002 0.18303466
00000000: f743 b5bd fd8f fcbe 7d7d a6be 30d0 99bd
00000010: 8bbd d8bd 973a c63e 3679 2f3e 6f3c 4c3d
00000020: 0efd 24be 97d1 893e 1dcf 843e 467e 36be
00000030: 7091 a43b 839a 7f3e 12e1 5d3e b1a9 813e
00000040: bdf0 923e 16e1 2b3d 0aaf 923d 6676 32be
00000050: 11b5 613c eb53 84be 3f2a c0be 3af2 71be
00000060: cf58 653e 86de 8e3e 7f22 f6be a515 1c3e
00000070: 269a ba3d ad0c a1bd 08e4 46be ae96 023d
00000080: c945 31bd a855 abbe 51c4 653e 855b 283e
00000090: 7ab8 a63d 1222 1bbe 8316 b53e 4c21 1dbf
000000a0: 539a 3b3e d1fa dfbe 13a1 2d3e 555f 8f3e
000000b0: 045b 5ebe b5ac 243e 95ec 853e 394a fe3c
000000c0: 2b37 183d dd2d 6abe b431 e93c d298 19bf
000000d0: 699e 51bf 4295 61bd 5e75 80be 8af0 933e
000000e0: 480c 133d 0be4 333e 1dad 09bf cc27 8cbe
000000f0: 9118 c4be 3aa3 1e3e cbe1 31bf 236d 3a3e
00000100: 747e 0cbe 1026 bebe 7f41 063d 2cc2 833e
00000110: 60b0 143e 9b8d 8dbe 6c68 afbe 742b 16be
00000120: 1a90 34bf 9cc1 73bc d7db 8f3d cc31 2ebf
00000130: 893b 23bf a3ff 8bbe 37c9 ef3d 3d06 353e
00000140: 4d7e 843e 17a7 f4be 70a0 bf3e 435f ccbd
00000150: efd8 583e 65c8 9ebe 6240 adbe d22b 8b3d
00000160: 4ac5 acbe 56c5 cb3d 3a6b d3bc 1f2d f8be
00000170: 8fd3 353e 8f80 3b3e 0dbf 43bd 1b7b 3cbc
00000180: 338d 7c3e 8e28 7b3e 9f1d fc3d bf16 1f3e
00000190: 8072 7f3e 322b 8cbd 5972 113e eb25 d7be
000001a0: 3286 803e 76a3 2ebe 8740 b4be 46fb afbe
000001b0: ffe6 c33e 3e46 fbbe e979 c63e c05b 9f3e
000001c0: 6f5e 5b3d 21a4 a6be be31 563e 9be6 4dbf
000001d0: fabc d2be 372b a4be 1696 b8bd 0480 d3be
000001e0: 3927 f1bd f72b 9b3e 5136 173d 888c 9f3e
000001f0: 180c b9bd 0a1d fe3d 823e 393e a39e b43e
00000200: dafc e33d 0c2e a7bd 4faf fc3e 73c5 9ebd
00000210: a650 353d 6178 c4be 5721 e5be f939 88be
00000220: 3b3e 03bf 8ed3 c33a 4b33 12be 2ae0 563e
00000230: 0cd7 a6be 3470 8e3e 3d2a 013e b5c9 1b3f
00000240: 3411 16bf 4c81 99be 149d 1b3f 74d6 da3e
00000250: e92e 2f3e d59d fbbe 3a3c ebbe 57bb 8ebe
00000260: 7f92 2b3e 7f29 96be 8ec4 063d f223 87be
00000270: 6bfa 873e ade2 fbbd c782 fbbd 5001 a2bd
00000280: 63f2 bebe 114e 3ebe 7bd0 01bf 2163 253b
00000290: 2339 2f3f bf2e af3e 1cf0 a9be 87cc abbe
000002a0: c251 bc3d 0497 8a3e fdc1 4e3e 802a e6bd
000002b0: cfd5 3ebf dc4f 393e 0f74 083f 29c8 80be
000002c0: 2969 873d 93e5 913e ca36 c2bd a956 c63d
000002d0: 782a 333f ddeb ae3d e6bb fabe 351e 18be
000002e0: 7eb8 53be 26c7 55bd 517c 16bb 4ba0 153d
000002f0: e45f d1be 7bda 6ebe d647 29bd a12d a43e
00000300: e24e 803d ca7f 833e efeb 31be 5d21 0dbd
00000310: 9f34 02bf d8d2 87be 9ef0 85bc 83ab 463e
00000320: 2974 0ebe 0cf7 f5bc 3ab5 923e fd67 333e
00000330: 28b2 37bf 2d5d efbe 6892 113e 57dd b9be
00000340: d0b3 17bf 2652 57bc fd5e dfbc 29d3 a93e
00000350: 9121 873e 82d1 d73a 8992 d8bd 6e11 ebbd
00000360: f14b 6d3e 57d8 2cbd 2515 263d 7411 f4be
00000370: 8e2f 52bf e8cf ac3d b3ed 813d f2a7 993e
00000380: 355d 8e3e 7015 893e 2cfa 97be da6c 6a3e
00000390: a69a e2be 1956 5f3e 4351 503e 5b3f cc3d
000003a0: 1a02 643e 56a4 7c3e 8110 c1bd 294b 3b3e
000003b0: 1a7d 93be 9643 373e f029 253e dcc8 c3be
000003c0: e4f3 82be 2a1d 1ebe 7127 ab3d d8e3 80be
000003d0: 6fd0 063e fc33 0e3e 2092 a3be d6b0 b23e
000003e0: e250 3d3e 1b7e 903d f78b 2d3d 490d 98be
000003f0: bf48 f23e bc4b 88be bded 223e 706d 3b3e

tfl.pseudo_qconst i1 [100, 784]
16 15 -18 12 -6 -19 4 -9
-11 -16 12 0 -4 -7 11 0
-18 18 -9 10 -1 2 -7 9
11 4 -11 -20 -1 16 7 18
4 29 27 16 32 33 34 13
13 62 36 68 71 45 9 29
12 7 30 36 8 12 15 -2
-4 7 22 34 31 7 10 9
17 -2 -13 50 0 26 31 85
86 69 70 52 35 40 24 37
29 -14 9 -14 -13 2 22 39
4 -19 7 47 -4 -48 -28 -15
-4 1 4 20 8 10 42 45
38 41 5 -8 1 40 36 -3
-14 10 35 65 19 13 -22 -26
-8 -21 3 4 -49 -34 -2 28
-18 -26 -7 0 -24 21 7 10
6 38 38 2 16 -4 53 -20
-16 48 19 17 9 -3 -23 -30
-61 -32 1 1 -8 3 15 0
-8 -11 27 25 -2 57 31 13
5 5 40 -1 10 35 47 35
24 2 16 -2 0 1 -7 -1
13 -6 29 4 22 23 -4 -15
50 114 42 32 6 42 5 2
-12 -4 -5 35 19 21 27 30
42 5 43 49 54 27 44 40
54 21 7 39 21 65 64 20
-1 28 22 14 -10 -9 9 5
12 42 48 37 50 48 48 46
56 40 27 42 56 -6 35 42
29 -17 16 5 -14 39 35 19
00000000: 100f ee0c faed 04f7 f5f0 0c00 fcf9 0b00
00000010: ee12 f70a ff02 f909 0b04 f5ec ff10 0712
00000020: 041d 1b10 2021 220d 0d3e 2444 472d 091d
00000030: 0c07 1e24 080c 0ffe fc07 1622 1f07 0a09
00000040: 11fe f332 001a 1f55 5645 4634 2328 1825
00000050: 1df2 09f2 f302 1627 04ed 072f fcd0 e4f1
00000060: fc01 0414 080a 2a2d 2629 05f8 0128 24fd
00000070: f20a 2341 130d eae6 f8eb 0304 cfde fe1c
00000080: eee6 f900 e815 070a 0626 2602 10fc 35ec
00000090: f030 1311 09fd e9e2 c3e0 0101 f803 0f00
000000a0: f8f5 1b19 fe39 1f0d 0505 28ff 0a23 2f23
000000b0: 1802 10fe 0001 f9ff 0dfa 1d04 1617 fcf1
000000c0: 3272 2a20 062a 0502 f4fc fb23 1315 1b1e
000000d0: 2a05 2b31 361b 2c28 3615 0727 1541 4014
000000e0: ff1c 160e f6f7 0905 0c2a 3025 3230 302e
000000f0: 3828 1b2a 38fa 232a 1def 1005 f227 2313
